lstm_jump.pt (torch, 210597 bytes, 10 tensors)

lstm.weight_ih_l0 f4 [256, 5]
0.019611789 0.07623514 -0.03734627 0.0966245 -0.0027967817 -0.08061897 0.033472773 0.07291797
0.1270279 -0.06789297 -0.045476798 -0.028879205 0.05258241 0.13918251 -0.0025053327 -0.1062639
-0.015413563 0.045698494 -0.02370666 0.04421731 0.08017427 -0.009088521 0.08737949 -0.067284435
0.0941657 -0.01437341 0.026171224 0.09172975 0.117116004 0.04300382 -0.063866764 0.059727017
-0.09832597 0.021146065 0.09713913 -0.07757145 0.124431 -0.061579864 0.0592565 -0.090437
0.104358904 0.09596609 0.08757216 0.08640447 -0.07558858 -0.12984426 -0.09781768 0.030033888
0.104707785 -0.048215345 0.07662501 -0.108456604 -0.07926877 -0.0021207733 0.047163557 -0.06774938
0.05942091 0.066752985 -0.018078458 0.016508138 -0.059348933 0.08924414 -0.0996124 0.005110183
0.047723208 0.0012740516 0.0024146256 0.010513292 -0.121692196 -0.036663845 0.062210612 0.043016724
-0.030101586 -0.073942676 0.044553705 -0.09640446 0.073031 -0.10105138 0.04946659 0.07921634
-0.029487196 0.025405608 0.087709375 0.10012275 -0.054467294 -0.041823223 -0.029858923 -0.103245154
-0.08690656 0.026961539 -0.08435889 0.016844358 -0.09307418 -0.09956484 -0.11853091 0.115314074
0.07009882 0.0887774 0.08805712 0.0568138 0.0828299 0.090546206 0.10749932 0.11757312
0.120628424 -0.06197383 -0.10349528 -0.047370672 -0.059543166 0.11633263 -0.091363676 0.0799592
0.013318154 -0.022735745 -0.10540413 -0.094053976 -0.08447337 0.11193614 -0.11160424 0.035541415
0.09279315 -0.009614775 0.020313852 -0.042927198 0.11462092 -0.091234095 -0.0019414147 -0.040908784
0.110244244 0.011641677 -0.11668988 -0.063624285 0.050421476 0.08830435 0.03633389 0.12721224
-0.09566102 0.08126123 0.09170133 0.026740149 -0.013204142 0.043568317 -0.120234676 0.022676451
-0.04732342 0.12491182 0.03292145 -0.073399186 0.07353673 0.041557044 -0.111326195 -0.093155116
0.09748348 0.06275688 -0.10886935 -0.09369861 -0.10076507 0.037074946 0.0078001395 0.10726839
0.10132933 -0.057593036 -0.03585821 -0.09306328 -0.012782449 -0.016449707 -0.064542055 -0.103282824
0.014586481 -0.12103933 0.0605436 -0.042879824 0.062588744 -0.038692597 0.12732221 -0.0794877
-0.06637067 -0.07307681 0.06407287 -0.032741554 0.049663767 0.0980033 0.054286342 -0.05171941
0.07878784 0.13565782 -0.0069846916 -0.04377275 0.011989409 0.035292227 0.084684834 -0.11201784
0.024492625 0.08496672 0.06671471 0.09184043 0.06022175 0.052242246 0.0061876485 -0.037811376
0.12535842 -0.012138797 -0.048930738 -0.03086618 0.10087074 0.030420491 0.06466771 -0.07191655
-0.08394055 0.04220159 0.04241236 -0.0020442812 -0.09890635 -0.03846074 -0.08295961 -0.12217436
-0.015561486 -0.12940733 -0.110777155 -0.0255256 0.06330939 0.08297597 0.113080814 0.023968516
0.089848675 -0.007735866 0.058702614 0.0016506589 0.071918845 -0.121458754 -0.035414957 -0.027342994
0.00036097993 0.022083037 -0.004144171 0.115097485 -0.073362686 0.017709933 0.10251602 -0.08073963
0.040059246 -0.09418053 -0.061930545 -0.033794045 0.108632505 -0.12795849 0.07379364 -0.108602874
-0.0035456114 -0.041852165 -0.031607088 0.092852205 0.0073329853 0.063618205 0.05751179 0.08534555
00000000: e7a8 a03c 2b21 9c3d 67f8 18bd 11e3 c53d
00000010: 364a 37bb 8f1b a5bd bf1a 093d 0456 953d
00000020: 9a13 023e 780b 8bbd e145 3abd 1594 ecbc
00000030: a760 573d dc85 0e3e 8230 24bb e3a0 d9bd
00000040: 2b89 7cbc 582e 3b3d 7834 c2bc 361d 353d
00000050: 6832 a43d 05e8 14bc 05f4 b23d 6ccc 89bd
00000060: f2d9 c03d 737e 6bbc 0965 d63c cfdc bb3d
00000070: 84da ef3d c624 303d 94cc 82bd 51a4 743d
00000080: 205f c9bd 833a ad3c e1f0 c63d c8dd 9ebd
00000090: aed5 fe3d 2b3b 7cbd f2b6 723d 0937 b9bd
000000a0: 1fba d53d df89 c43d 0859 b33d d4f4 b03d
000000b0: 2fce 9abd e5f5 04be a354 c8bd a109 f63c
000000c0: 0971 d63d 747d 45bd 93ed 9c3d 7f1e debd
000000d0: aa57 a2bd acfc 0abb 932e 413d 30c0 8abd
000000e0: 5763 733d cab5 883d 4619 94bc 133c 873c
000000f0: de17 73bd a2c5 b63d 9601 ccbd 5273 a73b
00000100: 6979 433d 14fe a63a b23e 1e3b f13f 2c3c
00000110: c239 f9bd d42c 16bd 8ed0 7e3d 4e32 303d
00000120: 9a97 f6bc 426f 97bd f27d 363d b46f c5bd
00000130: 4791 953d 07f4 cebd 7b9d 4a3d 2d3c a23d
00000140: 228f f1bc 6c1f d03c f9a0 b33d 280d cd3d
00000150: 1919 5fbd d44e 2bbd b39a f4bc 3272 d3bd
00000160: 11fc b1bd 72de dc3c 5bc4 acbd 2efd 893c
00000170: ad9d bebd a7e8 cbbd 55c0 f2bd c929 ec3d
00000180: f88f 8f3d edd0 b53d 4b57 b43d 96b5 683d
00000190: b9a2 a93d 4a70 b93d 9a28 dc3d 2dca f03d
000001a0: 090c f73d 45d8 7dbd 55f5 d3bd c007 42bd
000001b0: 89e3 73bd cd3f ee3d e11c bbbd a6c1 a33d
000001c0: 6334 5a3c 5040 babc 1fde d7bd 5f9f c0bd
000001d0: 6000 adbd c63e e53d c490 e4bd e093 113d
000001e0: 560a be3d 4a87 1dbc 3c69 a63c 6ed4 2fbd
000001f0: 5fbe ea3d f1d8 babd 1177 feba f88f 27bd
00000200: bcc7 e13d bbbc 3e3c 1bfb eebd 734d 82bd
00000210: c086 4e3d e9d8 b43d d8d2 143d ed43 023e
00000220: ede9 c3bd 4a6c a63d e8cd bb3d 280e db3c
00000230: 3056 58bc b174 323d 993d f6bd f7c3 b93c
00000240: 34d6 41bd c5d1 ff3d a4d8 063d 5052 96bd
00000250: 6d9a 963d b837 2a3d fdfe e3bd 1cc8 bebd
00000260: 6ba5 c73d ae86 803d e5f6 debd 0fe5 bfbd
00000270: eb5d cebd e6db 173d 5098 ff3b 88af db3d
00000280: c085 cf3d ade6 6bbd 0fe0 12bd f697 bebd
00000290: 7a6d 51bc 89c1 86bc a02e 84bd f285 d3bd
000002a0: 23fc 6e3c 78e3 f7bd 91fc 773d c1a2 2fbd
000002b0: 872e 803d 217c 1ebd c160 023e 72ca a2bd
000002c0: 59ed 87bd 4ba9 95bd a338 833d 021c 06bd
000002d0: 3c6c 4b3d f4b5 c83d 5b5b 5e3d bbd7 53bd
000002e0: 855b a13d e2e9 0a3e d7df e4bb 0e4b 33bd
000002f0: 3a6f 443c 958e 103d 3e6f ad3d 9c69 e5bd
00000300: c2a4 c83c 0803 ae3d b9a1 883d d616 bc3d
00000310: 15ab 763d f7fb 553d c2c1 ca3b 1ae0 1abd
00000320: f55d 003e cee1 46bc 996b 48bd 12db fcbc
00000330: 5295 ce3d 6534 f93c 8170 843d fc48 93bd
00000340: 06e9 abbd 93db 2c3d 95b8 2d3d 59f9 05bb
00000350: 6a8f cabd 0289 1dbd bae6 a9bd 8d36 fabd
00000360: 9af5 7ebc 5b83 04be 22df e2bd 101b d1bc
00000370: 5aa8 813d 4eef a93d ea96 e73d 9f59 c43c
00000380: 9502 b83d 267d fdbb 2772 703d ec5a d83a
00000390: 304a 933d 5ebf f8bd 460f 11bd 6afe dfbc
000003a0: e841 bd39 7ce7 b43c d3cb 87bb 3bb8 eb3d
000003b0: 2d3f 96bd 6c14 913c ebf3 d13d d25a a5bd
000003c0: 2a15 243d b9e1 c0bd e2aa 7dbd a06b 0abd
000003d0: b87a de3d 8d07 03be 1f21 973d 2f6b debd
000003e0: 7d5d 68bb 2d6d 2bbd 6f76 01bd 4c29 be3d
000003f0: 8a49 f03b 434a 823d 7c91 6b3d a6c9 ae3d

lstm.weight_hh_l0 f4 [256, 64]
-0.022412581 -0.035548314 -0.03271673 0.05713733 0.058455843 -0.09675124 -0.093311995 -0.107407376
0.0840595 0.036452733 0.11166915 0.05900212 -0.10590874 0.00020353508 -0.124424264 -0.06338814
0.12198288 -0.024363564 0.0020387042 -0.0027465578 0.022891015 0.0019039267 -0.08558643 -0.049309485
0.062132716 -0.13062811 -0.017418472 -0.098920025 0.01680055 0.11728712 -0.044233434 0.04453147
0.10422387 -0.13156453 -0.10102182 -0.07068621 -0.0074099884 0.10651201 0.09492419 0.07657521
0.10371074 -0.008622584 0.0741288 -0.11128069 -0.08446622 -0.019563247 0.0043894765 -0.06752162
-0.12174598 0.023305994 -0.042950284 -0.00015495537 0.06772721 0.122724615 0.06032752 -0.058226094
-0.063552305 0.051442873 -0.020419328 -0.021427501 0.050973803 -0.08700672 0.084116794 0.046130024
0.019583303 0.047873147 0.020879798 0.09658953 0.050786436 0.10781247 0.103638545 -0.042331133
-0.101041935 -0.024559751 0.104692444 -0.096697316 -0.09402295 -0.056685735 -0.025225129 0.08434832
-0.009846069 0.067020886 -0.11159393 0.011770622 0.060899597 0.103924714 0.063247904 0.050176583
0.03442959 0.040196028 -0.108773015 0.013900361 0.06677333 0.012636173 -0.009005433 0.05517973
-0.008190995 -0.017891007 0.058670636 -0.07192328 -0.118545435 0.023963638 0.026141902 -0.07838937
-0.0830917 0.104865454 -0.09290833 -0.079059094 0.10339354 0.077422366 0.008059748 0.053667493
0.11231676 -0.033300698 -0.010970313 0.10054142 0.034681674 0.07133347 0.0850718 -0.045013227
0.10703682 -0.08253448 0.0035292052 -0.0064407345 0.03407745 0.10122067 0.024204958 0.0051074266
0.09107515 -0.03975393 -0.12001093 0.009651425 -0.07801383 0.012677063 0.07711058 -0.090707295
0.051329043 -0.044758767 -0.04255697 0.0540169 0.0040411795 0.10992355 0.10064296 0.0614091
0.09253174 0.005499094 -0.12897244 0.07882112 -0.10709479 0.08696204 0.07667231 0.028126724
-0.029918224 -0.07354257 0.104752935 0.100095764 -0.08671989 -0.13027203 0.07975415 0.042741556
-0.09480386 0.09342279 0.041536376 0.06790983 0.0068615926 0.08059126 0.07201307 -0.004728228
-0.024695119 0.03043915 -0.071087025 -0.13205875 -0.021634515 -0.08302206 -0.110474765 -0.013176298
0.10174592 -0.07097176 0.044143334 -0.017067688 0.093586914 -0.067653544 0.055217423 0.08679452
0.04807762 0.073256895 -0.0015399351 0.09998298 -0.017728616 -0.072542846 -0.07055475 0.1273937
-0.031180132 -0.075654805 0.07798221 -0.04540429 -0.01271596 0.016043039 0.07678566 -0.08572717
-0.009188102 -0.016955297 -0.0046483516 -0.001404669 -0.03867009 -0.10815007 -0.019751776 0.08990371
-0.11900887 0.010026253 -0.10797448 -0.030162368 -0.08112911 -0.12118384 -0.052967668 -0.096931234
-0.13167793 0.038582306 0.1267639 -0.05909883 -0.089212105 0.104238525 0.10091429 0.08319198
0.043432843 0.0558357 -0.11189553 0.10654983 0.109496 -0.08812183 -0.03909008 -0.013181873
0.07510487 -0.025424035 0.110938765 0.047405098 -0.036536805 -0.038047098 0.05032438 0.0320937
0.09486185 0.0740976 -0.027184837 0.053255282 0.07308728 -0.06712265 0.108143374 -0.002534312
0.11329322 -0.0798945 0.047311123 0.01978653 0.010125611 -0.08053835 -0.07823716 0.077943884
00000000: 979a b7bc 1c9b 11bd fa01 06bd d508 6a3d
00000010: 656f 6f3d 8425 c6bd 5c1a bfbd 66f8 dbbd
00000020: 6327 ac3d 764f 153d ccb2 e43d 35ac 713d
00000030: aee6 d8bd 086c 5539 26d2 febd a4d1 81bd
00000040: 29d2 f93d 1996 c7bc c89b 053b 98ff 33bb
00000050: f085 bb3c 2e8d f93a f047 afbd bef8 49bd
00000060: e07e 7e3d 60c3 05be 2fb1 8ebc 9596 cabd
00000070: 4fa1 893c 3b34 f03d 1e2e 35bd a166 363d
00000080: 5373 d53d dab8 06be 87e4 cebd efc3 90bd
00000090: 7dcf f2bb f822 da3d 9d67 c23d 77d3 9c3d
000000a0: 4c66 d43d bd45 0dbc d7d0 973d 21e7 e3bd
000000b0: a0fc acbd 1a43 a0bc 99d5 8f3b c648 8abd
000000c0: f555 f9bd 36ec be3c a3ec 2fbd 847b 22b9
000000d0: 90b4 8a3d 0b57 fb3d fd19 773d 7c7e 6ebd
000000e0: b627 82bd c3b5 523d 6f46 a7bc ba88 afbc
000000f0: e8c9 503d 9430 b2bd 6d45 ac3d d6f2 3c3d
00000100: 2a6d a03c a216 443d 1c0c ab3c bbd0 c53d
00000110: 7005 503d c9cc dc3d 7240 d43d 6963 2dbd
00000120: 13ef cebd 8831 c9bc fe68 d63d 3e09 c6bd
00000130: 1b8f c0bd 4d2f 68bd eea4 cebc d0be ac3d
00000140: 6851 21bc 3f42 893d 5c8b e4bd 91d9 403c
00000150: db71 793d 7bd6 d43d 1e88 813d f685 4d3d
00000160: 0b06 0d3d 97a4 243d 63c4 debd 57be 633c
00000170: 75c0 883d f307 4f3c 868b 13bc 2404 623d
00000180: 8633 06bc 2990 92bc 9f50 703d 834c 93bd
00000190: f3c7 f2bd 644f c43c 8b27 d63c 9b8a a0bd
000001a0: fb2b aabd b3c3 d63d b946 bebd bce9 a1bd
000001b0: febf d33d 9e8f 9e3d 090d 043c 72d2 5b3d
000001c0: 5406 e63d 5066 08bd d4bc 33bc a9e8 cd3d
000001d0: 5f0e 0e3d 4817 923d 203a ae3d ca5f 38bd
000001e0: 1f36 db3d d607 a9bd 3d4a 673b cc0c d3bb
000001f0: cc94 0b3d c84c cf3d 7a49 c63c 335c a73b
00000200: 9c85 ba3d 04d5 22bd 4ac8 f5bd 0321 1e3c
00000210: b7c5 9fbd 75b3 4f3c 27ec 9d3d bfc4 b9bd
00000220: 673e 523d f854 37bd 3850 2ebd d340 5d3d
00000230: df6b 843b 991f e13d e51d ce3d 1c88 7b3d
00000240: 4881 bd3d be31 b43b 5a11 04be f86c a13d
00000250: 8354 dbbd 2719 b23d 5f06 9d3d 046a e63c
00000260: 1017 f5bc 7d9d 96bd b588 d63d 02ff cc3d
00000270: 339a b1bd 0866 05be 2556 a33d c511 2f3d
00000280: 8728 c2bd 7354 bf3d 0c22 2a3d 4f14 8b3d
00000290: 36d7 e03b 080d a53d 977b 933d 40ef 9abb
000002a0: 6b4d cabc 865b f93c 1396 91bd 693a 07be
000002b0: de3a b1bc 7807 aabd 9840 e2bd 66e1 57bc
000002c0: 2a60 d03d a459 91bd a4cf 343d 89d1 8bbc
000002d0: 7faa bf3d f18d 8abd aa2b 623d 53c1 b13d
000002e0: 0aed 443d b607 963d a6d7 c9ba e0c3 cc3d
000002f0: 9a3b 91bc 5891 94bd 027f 90bd 7e73 023e
00000300: 7a6d ffbc e8f0 9abd 23b5 9f3d d9f9 39bd
00000310: 9a56 50bc b16c 833c cd41 9d3d ba91 afbd
00000320: b189 16bc d6e5 8abc 3351 98bb df1c b8ba
00000330: 8764 1ebd c97d ddbd 7ace a1bc 701f b83d
00000340: ecba f3bd 2745 243c b921 ddbd 1217 f7bc
00000350: 0527 a6bd 3c2f f8bd a0f4 58bd e283 c6bd
00000360: 94d6 06be 7b08 1e3d 65ce 013e 9d11 72bd
00000370: d6b4 b6bd 027b d53d 27ac ce3d 8f60 aa3d
00000380: a3e6 313d fab3 643d 7c29 e5bd cc36 da3d
00000390: 703f e03d 3879 b4bd eb1c 20bd c8f8 57bc
000003a0: 95d0 993d 1146 d0bc dd33 e33d d92b 423d
000003b0: 9ea7 15bd 46d7 1bbd f020 4e3d af74 033d
000003c0: ee46 c23d 7cc0 973d bcb2 debc 3622 5a3d
000003d0: c9ae 953d 9a77 89bd 467a dd3d b316 26bb
000003e0: 4706 e83d ba9f a3bd 4fc9 413d 5c17 a23c
000003f0: e4e5 253c 4af1 a4bd ce3a a0bd 0ba1 9f3d

lstm.bias_ih_l0 f4 [256]
-0.054039292 -0.098658316 -0.08324825 -0.0324357 -0.051907364 -0.053197805 -0.12611039 0.0633938
-0.04201334 0.022318384 -0.0728286 0.03719701 -0.023507027 -0.040967483 -0.09365843 -0.021375028
0.04126613 -0.008623991 -0.06335513 0.09987588 0.02068249 -0.0002987358 -0.06302433 -0.074345164
0.082409404 0.022681061 0.01957332 -0.022500878 0.018206501 0.035930656 0.11087806 0.060187034
0.123263456 -0.05706806 -0.054537214 -0.064538054 0.12367114 0.096407205 -0.041014846 0.10400864
0.11953454 0.111415245 -0.010053205 0.026208049 -0.08898008 -0.08321623 0.03260433 -0.02007422
0.12820303 -0.06619952 -0.045024015 -0.01114333 -0.03721248 -5.1264302e-05 -0.020885427 0.06059505
0.086719714 0.034298576 0.10798265 -0.0025247708 -0.09729404 -0.06436039 -0.010694258 0.069432
0.061856974 0.042229194 -0.10892559 -0.08512133 -0.039852247 0.10366195 0.09273287 -0.051783506
0.099379905 -0.0835024 0.018009946 -0.09801999 0.05221675 0.05754517 -0.13024442 0.10941169
-0.0015850628 -0.018413616 0.047210835 -0.051580396 -0.05405824 0.11595652 -0.062998004 0.04598806
-0.007293861 -0.09106493 0.12492734 0.10287296 0.05916625 -0.059963338 0.0068308334 -0.05626014
0.0022642498 -0.12822226 -0.056515135 0.10930407 0.07428002 -0.02842022 0.0031285132 -0.11152899
-0.09172492 0.02494063 -0.02481293 -0.09428768 0.053209104 0.02661484 -0.104907386 -0.09874217
0.10895054 -0.08608622 -0.0066467365 -0.001671162 -0.01812933 0.08440893 0.00016625109 -0.12035259
0.10537598 -0.0023171352 -0.12105239 0.073784165 0.103658915 0.12626007 -0.046080768 0.117690675
0.029490503 0.1306242 0.105817996 0.03507416 -0.016018847 -0.051002536 -0.022477496 0.10833995
0.056190122 -0.09189309 0.1120689 -0.030487664 -0.05555451 -0.0625897 0.059838347 0.076508604
0.05754272 -0.073360965 -0.05437867 -0.09152831 0.06541118 -0.099531725 -0.045941368 -0.03454927
0.027642846 0.011722892 -0.052096438 0.102371156 0.0361518 0.09166084 -0.04127137 0.09224422
0.116636455 -0.030089628 0.04969388 0.12153896 0.111223996 -0.039787218 -0.030665629 -0.08714904
-0.029373273 0.088398345 -0.012945148 -0.016148502 -0.06787074 0.10366578 -0.04012563 -0.09287722
0.021498192 0.10006112 0.068902366 -0.060960077 -0.0049935216 -0.07896725 -0.021425948 0.07935001
-0.055452883 -0.0046598082 0.010210683 -0.0025682093 0.09940308 -0.13249664 0.024729095 -0.13282359
-0.041619413 0.10880312 -0.033585604 0.06669183 -0.07186952 0.070372574 -0.116066374 -0.081963025
0.12400011 -0.0926609 -0.113719314 -0.042310685 -0.02496103 0.020638436 0.018345304 -0.015843224
-0.030842507 -0.08589099 -0.04223372 -0.050706044 0.13398615 -0.006554054 0.08620722 -0.07066365
0.071009815 -0.029070918 0.026057992 0.0028948933 0.08683469 -0.01054821 0.04041583 -0.021211024
-0.072375454 0.091876626 0.051754277 -0.09194405 0.071902074 0.011971403 0.014269984 0.050672647
0.027340973 0.100430794 -0.10719811 0.04666526 0.12018684 0.083175845 0.10304004 0.023273325
-0.032067478 0.06517252 0.05277395 0.052201174 0.058919337 0.08540564 -0.0846256 0.046429668
0.11733459 0.03366358 0.0999458 -0.051449154 0.062355064 0.02155141 -0.014844677 -0.09295513
00000000: 4e58 5dbd 5f0d cabd 0f7e aabd 4cdb 04bd
00000010: d19c 54bd f1e5 59bd 1523 01be 9cd4 813d
00000020: 2e16 2cbd 0bd5 b63c 2927 95bd e45b 183d
00000030: cf91 c0bc 85cd 27bd fecf bfbd af1a afbc
00000040: ac06 293d a44b 0dbc 56c0 81bd ba8b cc3d
00000050: 536e a93c a49f 9cb9 e612 81bd 4742 98bd
00000060: 43c6 a83d a2cd b93c 3a58 a03c c353 b8bc
00000070: cd25 953c 062c 133d 0914 e33d ae86 763d
00000080: 8d71 fc3d 33c0 69bd 6a62 5fbd 872c 84bd
00000090: 4b47 fd3d 2471 c53d 2fff 27bd 7b02 d53d
000000a0: 86ce f43d ad2d e43d 33b6 24bc 43b2 d63c
000000b0: 303b b6bd 456d aabd 1e8c 053d b172 a4bc
000000c0: a847 033e 9d93 87bd 1a6b 38bd 8392 36bc
000000d0: 1d6c 18bd a004 57b8 ea17 abbc 8432 783d
000000e0: 1b9a b13d aa7c 0c3d 0226 dd3d a076 25bb
000000f0: 1942 c7bd 61cf 83bd f836 2fbc 5d32 8e3d
00000100: bd5d 7d3d 85f8 2c3d 6114 dfbd 1854 aebd
00000110: 1c3c 23bd b74c d43d bbea bd3d f11a 54bd
00000120: b187 cb3d 4e03 abbd 9889 933c b4be c8bd
00000130: 3be1 553d 7cb4 6b3d cb5e 05be 3c13 e03d
00000140: e2c1 cfba 27d8 96bc 2660 413d f745 53bd
00000150: 2c6c 5dbd 9d7a ed3d 1905 81bd fa5d 3c3d
00000160: 5701 efbb 4080 babd e8d9 ff3d 0faf d23d
00000170: 4f58 723d 1e9c 75bd 2fd5 df3b 0871 66bd
00000180: cf63 143b b24c 03be 6a7c 67bd d0da df3d
00000190: 2020 983d 85d1 e8bc be07 4d3b 5069 e4bd
000001a0: 46da bbbd 4b50 cc3c 7c44 cbbc e619 c1bd
000001b0: caf1 593d 5d07 da3c afd9 d6bd 5639 cabd
000001c0: 7621 df3d f94d b0bd decc d9bb e40a dbba
000001d0: f683 94bc 97de ac3d b053 2e39 6b7b f6bd
000001e0: 5dcf d73d 14db 17bb 51ea f7bd 271c 973d
000001f0: 204b d43d 524a 013e 30bf 3cbd cf07 f13d
00000200: 1196 f13c 5ac2 053e 1bb7 d83d eca9 0f3d
00000210: f539 83bc 09e8 50bd ba22 b8bc 56e1 dd3d
00000220: 9d27 663d 7232 bcbd 6184 e53d 44c1 f9bc
00000230: 208d 63bd 072f 80bd 0e19 753d 8bb0 9c3d
00000240: eab1 6b3d 463e 96bd 2bbc 5ebd 3273 bbbd
00000250: 4cf6 853d 4ad7 cbbd 042d 3cbd 8983 0dbd
00000260: 4073 e23c 5f11 403c 1363 55bd f8a7 d13d
00000270: e913 143d aeb8 bb3d 2b0c 29bd 8aea bc3d
00000280: 18df ee3d 867e f6bc cf8b 4b3d 6be9 f83d
00000290: 68c9 e33d ecf7 22bd 7c36 fbbc 327b b2bd
000002a0: 38a0 f0bc 310a b53d e317 54bc dd49 84bc
000002b0: d1ff 8abd b94e d43d c65a 24bd 6936 bebd
000002c0: fa1c b03c d8ec cc3d af1c 8d3d 46b1 79bd
000002d0: b2a0 a3bb 95b9 a1bd 7885 afbc 4282 a23d
000002e0: 9022 63bd 4eb1 98bb b54a 273c 674f 28bb
000002f0: d893 cb3d 33ad 07be ac94 ca3c e802 08be
00000300: 1e79 2abd 2cd4 de3d 0f91 09bd ba95 883d
00000310: 5430 93bd 7f1f 903d 35b4 edbd 3bdc a7bd
00000320: c5f3 fd3d ffc4 bdbd ace5 e8bd f84d 2dbd
00000330: 137b ccbc f011 a93c e448 963c a6c9 81bc
00000340: 6da9 fcbc 9ee7 afbd 44fd 2cbd 24b1 4fbd
00000350: aa33 093e 64c3 d6bb 698d b03d 1bb8 90bd
00000360: 986d 913d 2226 eebc 9277 d53c 40b8 3d3b
00000370: 63d6 b13d 66d2 2cbc 128b 253d bec2 adbc
00000380: 9539 94bd d029 bc3d 4bfc 533d 294d bcbd
00000390: 6541 933d b423 443c a7cc 693c 1f8e 4f3d
000003a0: 2dfa df3c a9ae cd3d af8a dbbd 1224 3f3d
000003b0: 8524 f63d 1958 aa3d a806 d33d b3a7 be3c
000003c0: 3059 03bd 2c79 853d 7f29 583d e6d0 553d
000003d0: 6755 713d 27e9 ae3d 3050 adbd 092d 3e3d
000003e0: 1e4d f03d d2e2 093d 62b0 cc3d 59bc 52bd
000003f0: 0668 7f3d 958c b03c 1737 73bc 425f bebd

lstm.bias_hh_l0 f4 [256]
-0.0074372557 0.019540707 0.047181875 -0.053137943 -0.014595247 0.010123468 0.058579925 -0.11155743
0.120460995 0.024629034 -0.036779165 0.015562606 -0.11185086 -0.09008945 -0.09498142 0.047030736
-0.038405955 -0.06872473 0.07075698 -0.1024397 -0.10234155 0.0724518 -0.07677102 -0.09006388
-0.027421717 0.08249406 0.040386043 0.11667163 0.029675197 -0.015716713 0.0894764 -0.1149142
-0.016852159 0.011305954 -0.10017477 -0.014011701 0.08499127 -0.08574404 -0.07475062 0.07733426
0.034151968 0.0412205 0.10177885 -0.07848223 0.07852198 0.043129552 -0.007562645 0.10006272
0.09168396 0.015182144 0.12631561 -0.059227407 0.0053177723 -0.07951843 0.07196527 0.03690587
-0.00721798 0.11973791 0.10706659 0.13428248 0.09326065 0.08486303 -0.0013031728 0.09595422
-0.047747225 0.005071049 0.061145913 0.097573295 0.09177974 -0.10504269 0.015328646 -0.09498761
0.11125562 0.042293683 0.030540634 0.084253654 0.021092998 -0.02140715 0.1104069 0.13356563
-0.073834114 -0.038961884 0.021073094 0.047933985 0.053670637 -0.1113454 0.05046854 0.007093006
-0.07285067 -0.054113045 -0.029647447 -0.009446319 0.07625243 0.0604755 0.02094403 0.0049994327
0.067285895 -0.011149515 -0.09174836 0.078367144 0.047673844 0.018509945 -0.031587802 0.08169238
-0.09838773 -0.033918723 0.063726336 0.040745582 0.11228715 0.0023690518 -0.06360213 -0.021650212
-0.034685623 0.091657944 0.057000667 -0.037348386 -0.062083635 0.070300914 0.05969092 0.10633922
0.004233568 0.020288726 -0.10982544 0.067594334 -0.033105053 -0.09578631 0.035391673 0.110172994
-0.096688405 0.043230645 0.01038305 0.04144688 -0.03322342 0.089179575 0.07692807 0.022949124
0.10385572 0.0017446851 -0.027952641 -0.11460669 -0.09734679 0.018264465 -0.006641723 -0.03567142
0.061755307 0.099147305 -0.021542506 -0.1147953 -0.045541737 0.042690314 0.11204094 0.052378323
-0.011410863 -0.02775747 0.0226834 0.013846312 0.055772655 -0.059759326 0.05320612 0.009805062
0.03352429 0.014519934 -0.07574588 0.0036765856 0.09149882 -0.056046203 -0.05000399 -0.09314717
-0.060834065 0.116490714 -0.020252947 -0.06785486 -0.1165805 -0.048843715 0.12058241 -0.07936353
-0.09751316 -0.10281229 -0.020967295 0.06904327 -0.09271539 -0.083312534 -0.09033157 0.07233329
0.058250733 0.02651187 -0.124861695 0.026690627 -0.08126059 0.07041402 -0.048176944 0.09194303
0.1173799 -0.017840007 0.11563837 -0.098302275 0.098043576 -0.01663755 -0.102005415 -0.0047564344
-0.06530772 0.02605803 0.09165923 -0.10158768 0.06960631 0.054947924 -0.036865305 -0.11069657
-0.10550325 0.11494 0.002790368 -0.029814107 0.11975679 -0.0224259 0.07503029 0.0754097
0.098233454 0.022825077 0.1377361 0.11982496 -0.09866043 0.02728206 0.12553103 0.0017540694
0.10711425 0.08585906 0.08645054 -0.102205165 0.096471064 -0.11313991 0.12249091 -0.096778296
0.122081324 0.045951128 -0.03034344 0.0012614793 0.03286539 -0.059069563 -0.048431225 0.067045294
-0.0695529 0.11058923 -0.069808535 0.114502795 -0.02100683 -0.038121447 0.12548448 0.09673689
0.099187 0.03828103 0.10301703 0.066942245 -0.076920785 0.0067887628 0.09002969 0.10438104
00000000: 39b4 f3bb d513 a03c c841 413d 2ca7 59bd
00000010: e720 6fbc e7dc 253c 81f1 6f3d 3978 e4bd
00000020: 41b4 f63d d4c2 c93c c0a5 16bd 4dfa 7e3c
00000030: 1012 e5bd d180 b8bd 9e85 c2bd 4da3 403d
00000040: 904f 1dbd 8dbf 8cbd 09e9 903d e8cb d1bd
00000050: 7298 d1bd 9c61 943d 203a 9dbd 6973 b8bd
00000060: 82a3 e0bc a5f2 a83d d66b 253d 89f1 ee3d
00000070: 6619 f33c 56c0 80bc 673f b73d 2358 ebbd
00000080: 8a0d 8abc 9c3c 393c 6e28 cdbd 5591 65bc
00000090: e70f ae3d 929a afbd da16 99bd 6d61 9e3d
000000a0: efe2 0b3d d4d6 283d 6e71 d03d 4bbb a0bd
000000b0: 22d0 a03d 9da8 303d 10d0 f7bb afed cc3d
000000c0: cdc4 bb3d 87be 783c e158 013e 7098 72bd
000000d0: b540 ae3b 8fda a2bd 8762 933d 9c2a 173d
000000e0: ce84 ecbb 2639 f53d ba45 db3d 5981 093e
000000f0: 71ff be3d abcc ad3d 39cf aaba a583 c43d
00000100: 9892 43bd 0b2b a63b 2374 7a3d 82d4 c73d
00000110: 04f7 bb3d 9f20 d7bd 0025 7b3c dd88 c2bd
00000120: fdd9 e33d 243c 2d3d 5a30 fa3c 2e8d ac3d
00000130: 39cb ac3c 0c5e afbc 031d e23d 6ec5 083e
00000140: 5736 97bd 7f96 1fbd 7ba1 ac3c 6d56 443d
00000150: bed5 5b3d 0f09 e4bd 1ab8 4e3d 726c e83b
00000160: bb32 95bd a4a5 5dbd 34df f2bc bcc4 1abc
00000170: 3c2a 9c3d 28b5 773d d092 ab3c 48d2 a33b
00000180: 30cd 893d 75ac 36bc 90e6 bbbd f47e a03d
00000190: a645 433d 2ba2 973c 3662 01bd 564e a73d
000001a0: 827f c9bd 5cee 0abd f482 823d d7e4 263d
000001b0: cef6 e53d 1842 1b3b d541 82bd c95b b1bc
000001c0: 8312 0ebd 29b7 bb3d 8879 693d 9ffa 18bd
000001d0: 694b 7ebd edf9 8f3d 777e 743d 61c8 d93d
000001e0: beb9 8a3b 8b34 a63c 29ec e0bd e66e 8a3d
000001f0: 2a99 07bd 9d2b c4bd dcf6 103d 61a2 e13d
00000200: 9204 c6bd 9e12 313d ab1d 2a3c 34c4 293d
00000210: 4815 08bd c8a3 b63d 778c 9d3d cdff bb3c
00000220: 4fb2 d43d ebad e43a f0fc e4bc eab6 eabd
00000230: c15d c7bd 5c9f 953c d0a2 d9bb 321c 12bd
00000240: 22f3 7c3d be0d cb3d e979 b0bc cc19 ebbd
00000250: f989 3abd 0adc 2e3d b875 e53d a78a 563d
00000260: a1f4 3abc a263 e3bc 8ad2 b93c a4db 623c
00000270: de71 643d 32c6 74bd a9ee 593d 69a5 203c
00000280: c450 093d 04e5 6d3c a820 9bbd dff2 703b
00000290: bc63 bb3d b490 65bd fcd0 4cbd f2c3 bebd
000002a0: 242d 79bd af92 ee3d 82e9 a5bc 7df7 8abd
000002b0: c2c1 eebd 5910 48bd e9f3 f63d 5989 a2bd
000002c0: fbb4 c7bd 408f d2bd 9bc3 abbc 8f66 8d3d
000002d0: 91e1 bdbd c39f aabd c2ff b8bd 7a23 943d
000002e0: 5298 6e3d 6c2f d93c 7db7 ffbd 4da6 da3c
000002f0: f46b a6bd 3a35 903d 3055 45bd a14c bc3d
00000300: df64 f03d 3525 92bc cfd3 ec3d b452 c9bd
00000310: 12cb c83d 794b 88bc 37e8 d0bd dddb 9bbb
00000320: 0ec0 85bd a677 d53c d6b7 bb3d 340d d0bd
00000330: c18d 8e3d 1311 613d 1300 17bd e2b4 e2bd
00000340: 1712 d8bd aa65 eb3d 9bde 363b b73c f4bc
00000350: 0c43 f53d 85b6 b7bc 7ba9 993d 6770 9a3d
00000360: 9f2e c93d a8fb ba3c b10a 0d3e ca66 f53d
00000370: 7b0e cabd a07e df3c 358b 003e cde8 e53a
00000380: b75e db3d e0d6 af3d fb0c b13d f150 d1bd
00000390: 9f92 c53d e6b5 e7bd 84dc fa3d b333 c6bd
000003a0: c605 fa3d 4037 3c3d ce92 f8bc 3958 a53a
000003b0: dc9d 063d edf2 71bd d25f 46bd 0b4f 893d
000003c0: c071 8ebd 9b7c e23d c7f7 8ebd 7180 ea3d
000003d0: 8416 acbc 3c25 1cbd 017f 003e fe1d c63d
000003e0: 8e22 cb3d 92cc 1c3d 98fa d23d 0419 893d
000003f0: a588 9dbd 4574 de3b 7c61 b83d bac5 d53d

lstm.weight_ih_l1 f4 [256, 64]
0.015526836 -0.11138735 -0.03209597 0.0008328826 -0.05296052 -0.09406026 0.009919718 0.12039084
-0.05933679 0.018281253 0.03659335 -0.021554155 0.09509707 -0.110750504 0.0048017916 0.12615469
-0.056580994 0.038563896 -0.0923068 -0.012108633 0.03335624 -0.008286638 0.12615995 0.039737973
-0.115497865 -0.041109923 -0.08918212 0.053598557 0.100576855 0.11504691 0.02103586 -0.067664534
-0.0066943504 0.039798975 -0.04311498 -0.037021946 0.07107086 -0.08853621 -0.02120825 -0.09819079
0.116590664 -0.021662585 0.045447223 0.028368408 -0.026053796 0.030173985 0.119941056 -0.09325433
-0.071401864 0.023543447 0.032766595 -0.08345525 0.049654223 0.09357469 0.08643024 0.029239757
-0.1135911 -0.075918615 -0.10819568 -0.04128605 -0.093379654 0.01352486 0.010498019 0.0239665
0.070865065 -0.026313942 -0.0916705 -0.00012980163 0.09633415 0.118335225 0.080168605 0.08762156
0.051452387 -0.007896303 -0.035081603 0.03760344 0.013072657 0.09066089 0.07755021 -0.07264659
-0.019534856 -0.10542544 0.08086633 -0.10370528 0.074242525 -0.01378854 -0.041737355 -0.106722035
0.09348095 -0.012149921 0.112866454 0.056275994 -0.094298065 0.08842908 -0.010539405 -0.011486226
0.037595477 -0.014559676 -0.04121002 -0.04390624 -0.08480331 -0.022825984 -0.061099574 0.05472041
-0.07991661 -0.09239692 0.0056770043 0.001323947 -0.087927945 0.06643859 0.031423982 -0.059729747
-0.031709254 0.047601 0.102603346 -0.003443113 0.06272341 0.116089344 0.06628197 0.08704981
0.0046240827 -0.11330597 -0.057543706 -0.041623555 -0.027102398 0.05833099 0.063500695 0.10907355
-0.07060663 0.029209252 -0.13338189 0.08560152 -0.07299799 -0.029622927 0.05689346 0.026271423
-0.005598163 0.025392652 0.09937063 -0.072972655 0.038263623 0.069902726 0.08820554 -0.046808828
0.006552038 0.09192218 -0.0013102147 0.11169575 -0.024507875 -0.054665975 -0.007555283 0.011632034
-0.05117523 -0.07490385 0.027155563 -0.033599302 0.04444174 -0.10740785 0.120793805 -0.04489297
0.030764364 -0.030477516 0.03437049 0.09911874 0.041185305 -0.03941901 0.00085666095 0.090083234
-0.06277978 0.047390904 0.031135458 0.034796692 -0.093454435 0.14489 -0.02273281 0.0034563544
0.1295373 0.018556628 -0.008287517 -0.09576861 0.009947531 -0.0023680713 -0.028759168 0.01219032
-0.06250238 -0.050747544 -0.03442828 0.041707437 0.13193151 -0.09011695 0.11462954 0.00080092007
0.09320694 -0.0019059272 0.115480915 -0.12296945 0.054776374 0.055357084 -0.032971356 -0.08904859
0.06243361 0.027772745 -0.018229801 -0.018111456 -0.04390765 0.024479767 0.071025945 -0.05204666
-0.1128609 0.01773253 0.08408714 -0.111307725 -0.04113554 -0.057891395 0.025214246 0.0822011
-0.058058843 -0.109766826 -0.029521963 -0.06301657 0.10888975 0.029914385 0.07257831 -0.07806
-0.062196255 0.09263459 0.09139951 0.014942653 -0.03588461 0.029031249 -0.054976474 0.034440473
0.09016642 -0.041346163 -0.053175233 0.045062095 -0.0060535697 -0.055513747 -0.07211443 0.1183957
-0.08401846 0.057776123 -0.12881446 0.0059077954 -0.051097065 0.09896094 -0.028002338 0.08742174
0.07264248 0.04845773 0.11546105 -0.053572077 0.03635747 -0.0831399 0.021175329 -0.10713156
00000000: 4564 7e3c 0d1f e4bd 1077 03bd ce55 5a3a
00000010: 21ed 58bd aaa2 c0bd 5086 223c 798f f63d
00000020: 220b 73bd 91c2 953c e9e2 153d 5792 b0bc
00000030: 41c2 c23d 29d1 e2bd 5958 9d3b b22e 013e
00000040: 79c1 67bd 2df5 1d3d 590b bdbd 4a63 46bc
00000050: 8da0 083d aec4 07bc 1330 013e 49c4 223d
00000060: 258a ecbd e162 28bd 1ea5 b6bd 298a 5b3d
00000070: 3dfb cd3d b79d eb3d 6553 ac3c b493 8abd
00000080: 485c dbbb 4004 233d 5599 30bd 53a4 17bd
00000090: 998d 913d 7952 b5bd edbc adbc 4118 c9bd
000000a0: 16c7 ee3d bc75 b1bc de26 3a3d dd64 e83c
000000b0: c56e d5bc 6f2f f73c a8a3 f53d 20fc bebd
000000c0: 243b 92bd 30de c03c 4436 063d 96ea aabd
000000d0: 3a62 4b3d 16a4 bf3d 5602 b13d 3788 ef3c
000000e0: 73a2 e8bd 387b 9bbd b295 ddbd 901b 29bd
000000f0: d53d bfbd 6097 5d3c e2ff 2b3c 6555 c43c
00000100: b421 913d 5690 d7bc bebd bbbd 5c1b 08b9
00000110: d74a c53d bd59 f23d 702f a43d ef72 b33d
00000120: bdbf 523d 7f5f 01bc bab1 0fbd 1106 1a3d
00000130: b32e 563c 6bac b93d a5d2 9e3d bcc7 94bd
00000140: 9007 a0bc 4be9 d7bd 3f9d a53d 6f63 d4bd
00000150: 770c 983d 54e9 61bc caf4 2abd 1591 dabd
00000160: f172 bf3d 7610 47bc 8726 e73d a881 663d
00000170: 581f c1bd 4e1a b53d 78ad 2cbc b930 3cbc
00000180: b7fd 193d b58b 6ebc d7cb 28bd 08d7 33bd
00000190: 5cad adbd 8ffd babc 8c43 7abd 8222 603d
000001a0: 52ab a3bd 993a bdbd 2a06 ba3b 4a88 ad3a
000001b0: 9113 b4bd f510 883d 6fb6 003d 2ea7 74bd
000001c0: 90e1 01bd 44f9 423d b421 d23d daa5 61bb
000001d0: 2275 803d 40c0 ed3d d7be 873d 2c47 b23d
000001e0: 9e85 973b f60c e8bd f3b2 6bbd 767d 2abd
000001f0: d905 debc 7aec 6e3d a70c 823d f461 df3d
00000200: 359a 90bd 3e48 ef3c 4395 08be da4f af3d
00000210: f87f 95bd c8ab f2bc 1e09 693d 2b37 d73c
00000220: cc70 b7bb 4004 d03c d482 cb3d b072 95bd
00000230: 51ba 1c3d 2929 8f3d 1ba5 b43d 9dba 3fbd
00000240: 7ab2 d63b b241 bc3d 83bb abba bec0 e43d
00000250: bdc4 c8bc 6ee9 5fbd 4f92 f7bb 4994 3e3c
00000260: 1e9d 51bd 3167 99bd 5875 de3c 6c9f 09bd
00000270: 8b08 363d a6f8 dbbd be62 f73d b1e1 37bd
00000280: 8c05 fc3c fcab f9bc 12c8 0c3d c4fe ca3d
00000290: ecb1 283d d475 21bd 8b91 603a 8f7d b83d
000002a0: af92 80bd f71c 423d ca0f ff3c fa86 0e3d
000002b0: 0a65 bfbd 0b5e 143e 283a babc 0184 623b
000002c0: 6da5 043e 1204 983c 5ec8 07bc 5522 c4bd
000002d0: f8fa 223c a531 1bbb 5998 ebbc e8b9 473c
000002e0: 3f01 80bd a8dc 4fbd ab04 0dbd 6bd5 2a3d
000002f0: 0e19 073e 3c8f b8bd e4c2 ea3d d6f4 513a
00000300: 48e3 be3d 4ed0 f9ba 4281 ec3d 68d7 fbbd
00000310: 315d 603d 1cbe 623d f90c 07bd 1b5f b6bd
00000320: 63ba 7f3d ab83 e33c aa56 95bc 7a5e 94bc
00000330: 82d8 33bd cb89 c83c 0d76 913d e12e 55bd
00000340: 9e23 e7bd d043 913c e135 ac3d 4ef5 e3bd
00000350: bd7d 28bd 871f 6dbd 1b8e ce3c 0d59 a83d
00000360: 1ccf 6dbd 6ecd e0bd 0bd8 f1bc d50e 81bd
00000370: 9701 df3d 030f f53c f0a3 943d ecdd 9fbd
00000380: 80c1 7ebd 34b7 bd3d ab2f bb3d 07d2 743c
00000390: befb 12bd f1d2 ed3c 032f 61bd 7411 0d3d
000003a0: 2ca9 b83d 985a 29bd 46ce 59bd 0893 383d
000003b0: 065d c6bb 6262 63bd bbb0 93bd 7279 f23d
000003c0: df11 acbd a8a6 6c3d f0e7 03be 2e96 c13b
000003d0: 284b 51bd 09ac ca3d 2965 e5bc 2b0a b33d
000003e0: 95c5 943d 9d7b 463d d876 ec3d 656e 5bbd
000003f0: 92eb 143d 4045 aabd e277 ad3c cb67 dbbd

lstm.weight_hh_l1 f4 [256, 64]
-0.0900901 -0.06465135 0.031852297 0.008822835 0.016687598 0.012013493 0.029832795 -0.08083679
-0.075463414 0.007923492 -0.099279635 0.034175735 -0.120181866 -0.015232226 -0.09757158 -0.06333929
-0.12036193 0.029523153 -0.109191045 -0.10118033 0.058835883 0.11042292 -0.03412007 0.037991077
-0.11183449 -0.13623454 -0.10518922 -0.043401644 0.039957825 -0.09598277 0.029339394 0.005347145
-0.04023016 -0.021716869 0.12208449 0.063523486 -0.0893415 -0.027727252 0.0043941205 0.03226637
0.033062648 0.02620053 -0.11333916 0.095455624 0.048738547 -0.050941177 0.042111956 0.049844336
-0.072096 0.09157271 -0.009168957 -0.10856704 -0.0291547 0.05812197 0.037038267 0.11357833
-0.11968271 0.10778163 0.0873107 0.045733668 -0.0023915363 0.038288347 0.01357536 0.103158355
0.08140537 -0.023657713 0.113511674 0.052213315 -0.0042236266 0.034661744 -0.06567137 -0.031925123
0.12607203 0.030367147 -0.032108888 0.10506139 -0.023835802 0.066728204 -0.060687438 -0.0883845
-0.10056143 -0.0015853632 0.031058637 0.053717848 0.121123336 0.0035621324 0.104575515 -0.06337612
0.039698344 -0.028184295 0.024279563 0.048882842 0.053648792 0.005614712 0.107502 0.014754776
0.028274398 0.07453697 -0.12857093 -0.08776293 -0.091076694 0.118189715 0.08380342 0.012651274
-0.06916308 -0.09979009 -0.107745126 -0.113485366 0.029736295 -0.031256862 -0.05073428 0.057428233
-0.05901463 0.10287441 0.06383989 -0.10772635 -0.050897293 -0.03230966 0.089169376 0.104855806
-0.0776366 0.109362245 0.062299915 -0.07376492 -0.06687997 -0.060862135 0.041062273 -0.07345195
0.03498674 0.04949216 -0.107512854 -0.022919822 -0.103613436 -0.08781055 -0.042491928 -0.053869076
0.061749175 0.0205833 0.060106836 -0.060661852 -0.013612426 0.105589926 -0.02688984 -0.028949583
-0.032806773 0.10905836 0.016305381 -0.115054436 -0.052261554 -0.07819653 -0.084311 -0.04753809
0.020918429 0.040654086 -0.041566804 0.018080957 -0.08529069 0.0587398 0.058030214 0.113565795
-0.114580154 -0.017758641 -0.060777243 -0.05672372 -0.101301886 -0.056903124 0.026884232 0.005791816
0.12240053 -0.019181939 0.08896778 0.06382017 0.0357548 0.07578364 0.05840487 0.057694063
0.0037046946 -0.05170842 -0.0670465 0.016279534 -0.120440185 0.10242669 0.11604568 0.024714146
-0.009193599 -0.03613359 0.07863113 -0.08345072 0.055010103 0.12164117 0.10306493 0.109270245
0.02602242 -0.012868617 -0.024518628 -0.10026209 -0.098601304 0.039173096 -0.09757603 -0.021635365
-0.0775457 0.09666444 0.03530379 0.11410712 -0.027614506 -0.107641 -0.00610036 -0.088585936
0.097541854 -0.0404137 -0.117927 -0.09667458 -0.017077493 -0.075936966 0.009500396 0.01304483
0.10904215 0.1269471 0.051636912 -0.044796348 0.09384115 0.019455576 -0.05649758 -0.031299416
-0.11596131 -0.023434084 0.11716529 -0.11605282 -0.10250869 0.10856693 -0.07917468 -0.10195649
-0.09292314 -0.03314697 0.07809673 0.021292537 -0.07833341 0.041515753 0.13070582 0.092056304
0.017050702 0.028603056 0.054376554 -0.08891574 -0.053868014 0.10065366 -0.08665998 0.060603153
-0.05528443 0.051869694 -0.02063224 0.011574122 -0.008315235 -0.12698954 -0.016565489 -0.044623338
00000000: 2981 b8bd ed67 84bd 8e77 023d a78d 103c
00000010: 6eb4 883c 3ed4 443c e863 f43c c28d a5bd
00000020: 908c 9abd 89d1 013c 1f53 cbbd dbfb 0b3d
00000030: e921 f6bd 9690 79bc 9cd3 c7bd 08b8 81bd
00000040: 5180 f6bd 8ada f13c 8e9f dfbd a237 cfbd
00000050: e5fd 703d 6925 e23d 7dc1 0bbd 889c 1b3d
00000060: 7b09 e5bd 1181 0bbe 726d d7bd ecc5 31bd
00000070: d1aa 233d 9d92 c4bd 2b59 f03c 1a37 af3b
00000080: 61c8 24bd 93e7 b1bc 6f07 fa3d 9a18 823d
00000090: adf8 b6bd 4324 e3bc 8efc 8f3b be29 043d
000000a0: b36c 073d 7ea2 d63c 5d1e e8bd 3d7e c33d
000000b0: 12a2 473d b2a7 50bd 967d 2c3d 9329 4c3d
000000c0: 11a7 93bd 798a bb3d 6539 16bc 6558 debd
000000d0: d6d5 eebc 4e11 6e3d 70b5 173d c19b e83d
000000e0: 351c f5bd 9dbc dc3d f4cf b23d 3a53 3b3d
000000f0: 52bb 1cbb 3ed4 1c3d 306b 5e3c b044 d33d
00000100: dcb7 a63d d2cd c1bc cf78 e83d a1dd 553d
00000110: 5966 8abb 79f9 0d3d b67e 86bd ebc3 02bd
00000120: 0719 013e 86c4 f83c 9c84 03bd 6d2a d73d
00000130: 4d43 c3bc cca8 883d 6493 78bd ef02 b5bd
00000140: 27f3 cdbd f6cb cfba af6e fe3c 3f07 5c3d
00000150: 830f f83d aa72 693b b02b d63d 57cb 81bd
00000160: bb9a 223d c0e2 e6bc efe5 c63c 6039 483d
00000170: d6be 5b3d 9efb b73b 022a dc3d 04be 713c
00000180: b69f e73c d7a6 983d 19a8 03be 0dbd b3bd
00000190: 6b86 babd 730d f23d 21a1 ab3d 4a47 4f3c
000001a0: 5fa5 8dbd bf5e ccbd 7aa9 dcbd 046b e8bd
000001b0: 8899 f33c 3207 00bd c0ce 4fbd de39 6b3d
000001c0: 53b9 71bd d2af d23d 7dbe 823d a29f dcbd
000001d0: ae79 50bd 2257 04bd 6f9e b63d a4be d63d
000001e0: f0ff 9ebd 50f9 df3d 322e 7f3d 1012 97bd
000001f0: 5ef8 88bd 934a 79bd ea30 283d fa6d 96bd
00000200: 424e 0f3d 4bb8 4a3d b32f dcbd 5ac2 bbbc
00000210: 4833 d4bd 05d6 b3bd 040c 2ebd d2a5 5cbd
00000220: b4ec 7c3d 4f9e a83c 9632 763d 9078 78bd
00000230: a706 5fbc 883f d83d 1548 dcbc ad27 edbc
00000240: 6560 06bd fd59 df3d dd92 853c a9a1 ebbd
00000250: 3610 56bd 8125 a0bd 3fab acbd 4db7 42bd
00000260: 205d ab3c e684 263d f441 2abd 841e 943c
00000270: e3ac aebd 2599 703d 17b1 6d3d 2f95 e83d
00000280: 00a9 eabd 927a 91bc 8ff1 78bd 2257 68bd
00000290: 5d77 cfbd 4013 69bd 523c dc3c 46c9 bd3b
000002a0: 21ad fa3d 7123 9dbc bd34 b63d 26b4 823d
000002b0: a073 123d 7434 9b3d f239 6f3d 9c50 6c3d
000002c0: 76ca 723b 35cc 53bd ad4f 89bd a85c 853c
000002d0: 58a9 f6bd 16c5 d13d 5ca9 ed3d 5275 ca3c
000002e0: c0a0 16bc d100 14bd 5c09 a13d 36e8 aabd
000002f0: 4652 613d 011f f93d b513 d33d 14c9 df3d
00000300: f82c d53c e4d6 52bc 4adb c8bc 3656 cdbd
00000310: 7bef c9bd f873 203d f1d5 c7bd a63c b1bc
00000320: 48d0 9ebd 02f8 c53d b59a 103d feb0 e93d
00000330: d137 e2bc e272 dcbd 87e5 c7bb 8b6c b5bd
00000340: 06c4 c73d d688 25bd b683 f1bd 52fd c5bd
00000350: 19e6 8bbc d784 9bbd 8da7 1b3c fcb9 553c
00000360: 7e51 df3d 6cfe 013e 3a81 533d 607c 37bd
00000370: ca2f c03d 4d61 9f3c 026a 67bd d133 00bd
00000380: 207d edbd d6f8 bfbc 5bf4 ef3d 1aad edbd
00000390: 13f0 d1bd 5758 de3d 5626 a2bd 90ce d0bd
000003a0: 7d4e bebd 1ec5 07bd 2ef1 9f3d b06d ae3c
000003b0: 446d a0bd 6c0c 2a3d bfd7 053e 0488 bc3d
000003c0: eaad 8b3c f550 ea3c f3b9 5e3d 7519 b6bd
000003d0: b5a4 5cbd 8223 ce3d ca7a b1bd 033b 783d
000003e0: ed71 62bd 5175 543d f204 a9bc 63a1 3d3c
000003f0: a03c 08bc 8c09 02be 59b4 87bc f6c6 36bd

lstm.bias_ih_l1 f4 [256]
-0.003011548 0.039787136 0.004014873 0.08572641 -0.09639727 -0.046474516 -0.067570135 -0.08751809
-0.07776132 0.012338919 -0.0718734 -0.08257246 -0.09429426 0.12734452 -0.055460315 0.042979907
-0.026719557 0.03499447 0.11295337 0.034985717 0.053945217 0.067915894 0.10288928 0.081365794
-0.07178573 0.08563943 0.01310195 0.059264164 0.045120075 -0.029118368 0.02149057 0.088133566
-0.00024481904 0.054697093 -0.08286258 -0.047806278 -0.06654801 0.040230248 0.035104997 0.009416822
-0.019278225 -0.03764056 0.031141806 -0.011708314 0.0677504 0.054498125 -0.049992196 -0.11202744
-0.019739004 -0.071919546 -0.07810313 0.07185461 -0.001328052 0.003025136 -0.032761864 0.13033569
0.05637704 -0.09165112 -0.03900852 0.07408707 0.052883845 0.03631009 -0.056780495 -0.094044864
0.012380246 -0.08398653 -0.017191272 -0.05427444 0.05518758 0.052269112 -0.05177446 0.045110323
-0.03545707 0.03534882 0.11528991 -0.019086132 0.038513914 0.019945897 0.03327465 -0.06516292
-0.12689467 0.004869236 -0.004931965 -0.06033941 0.041667696 0.037041906 -0.12447277 -0.07434966
-0.028590757 -0.010743202 0.048385907 0.066703156 0.07045793 0.09233854 -0.026923345 -0.092869215
-0.041673124 -0.12604594 0.1072398 -0.009798557 -0.04135025 -0.04363291 -0.064195424 -0.081715435
-0.082771495 -0.03878219 -0.08643011 -0.056871027 0.014101127 -0.03816716 -0.075210005 0.016408617
0.087381326 0.098514564 -0.053992055 0.033904735 0.06952346 0.10718122 0.05291819 -0.1176464
0.08313614 -0.03806285 0.049165614 0.08697498 0.02632911 0.06055843 -0.074213296 -0.02709289
0.078330986 0.12490615 -0.070800334 0.06131859 -0.07209464 -0.032898754 -0.057579145 0.03539992
0.07920742 -0.020532329 0.11116102 -0.1282419 -0.114022605 -0.060284168 -0.106266625 -0.027803665
-0.028734637 0.0144666955 0.011919372 -0.039819553 -0.008910726 0.082814686 -0.037591178 -0.09223608
-0.006537847 0.025211755 -0.043563105 -0.012582202 0.08729504 -0.12008469 -0.11652743 -0.06514797
0.12600285 -0.09966028 0.09770479 -0.09654169 0.016803214 0.056500025 -0.04820116 -0.07540938
-0.019890899 0.038879625 -0.062884815 0.06216199 -0.1138236 0.08167136 -0.0029841936 0.008767535
-0.11037814 -0.09356229 -0.11508196 -0.06378192 -0.014593005 0.057984453 0.047238916 0.035806775
-0.07125628 0.081350975 0.064155996 -7.1368646e-05 0.03321779 0.08078393 0.12920517 0.0421951
0.07543224 -0.12367538 -0.009763582 -0.03028702 0.06422244 0.06358506 -0.08436898 0.09545154
0.057378743 -0.0031832706 0.039327063 0.10301314 -0.07113926 -0.07022747 -0.13537292 -0.02947937
0.035263143 0.09298469 0.055528093 -0.03828995 0.10763497 0.074342884 0.10571574 0.06350403
0.037977997 0.11056712 0.057334702 -0.040498644 -0.08930241 -0.06464493 0.013341302 -0.07808027
-0.11591225 -0.102531604 0.047854 0.10419708 -0.07636495 0.09244198 0.02184987 0.045938957
-0.016604638 -0.09969551 0.069177665 -0.0311648 0.10769068 -0.054113273 0.10436573 0.11830403
0.018593289 0.070395015 -0.06825799 -0.08203843 0.014376663 0.046671245 0.012136008 -0.0019506515
-0.004045183 0.05769908 -0.024024162 0.06463871 -0.09230152 -0.032232586 -0.040196892 -0.05317657
00000000: 645d 45bb d6f7 223d 328f 833b 5491 af3d
00000010: ef6b c5bd 105c 3ebd 3662 8abd af3c b3bd
00000020: 5441 9fbd 2d29 4a3c 5c32 93bd c01b a9bd
00000030: 591d c1bd 9a66 023e 5b2a 63bd b30b 303d
00000040: f9e2 dabc 5d56 0f3d 1954 e73d 2f4d 0f3d
00000050: a9f5 5c3d 7d17 8b3d 9db7 d23d 1ca3 a63d
00000060: 6604 93bd ba63 af3d 90a9 563c fbbe 723d
00000070: d4cf 383d a589 eebc fe0c b03c 5f7f b43d
00000080: 0e5b 80b9 0f0a 603d dbb3 a9bd 84d0 43bd
00000090: 534a 88bd 79c8 243d 42ca 0f3d 0449 1a3c
000000a0: 5eed 9dbc fd2c 1abd 1a1d ff3c 3ad4 3fbc
000000b0: b9c0 8a3d 6d39 5f3d 9ec4 4cbd a46e e5bd
000000c0: b1b3 a1bc 8e4a 93bd 89f4 9fbd 8328 933d
000000d0: 0812 aeba 5c41 463b 4e31 06bd b876 053e
000000e0: 9ceb 663d 95b3 bbbd 66c7 1fbd f6ba 973d
000000f0: bb9c 583d e4b9 143d aa92 68bd 989a c0bd
00000100: 84d6 4a3c 2101 acbd b6d4 8cbc e04e 5ebd
00000110: 5f0c 623d 2318 563d 7511 54bd 9ac5 383d
00000120: 6f3b 11bd edc9 103d 1e1d ec3d 855a 9cbc
00000130: c4c0 1d3d 9465 a33c 004b 083d 2374 85bd
00000140: adf0 01be 1d8e 9f3b 529c a1bb 7526 77bd
00000150: bfab 2a3d 41b9 173d 94eb febd a244 98bd
00000160: 2a37 eabc 4104 30bc 4d30 463d aa9b 883d
00000170: 3f4c 903d fd1b bd3d 598e dcbc 3732 bebd
00000180: 70b1 2abd 3012 01be 8aa0 db3d 208a 20bc
00000190: e15e 29bd 6cb8 32bd e478 83bd 6c5a a7bd
000001a0: 1a84 a9bd 13da 1ebd 4502 b1bd 98f1 68bd
000001b0: 6a08 673c 2b55 1cbd b407 9abd 5d6b 863c
000001c0: fbf4 b23d 01c2 c93d c626 5dbd b1df 0a3d
000001d0: 5162 8e3d d481 db3d bec0 583d 99f0 f0bd
000001e0: 4843 aa3d cae7 1bbd e261 493d f01f b23d
000001f0: 25b0 d73c 1e0c 783d 24fd 97bd e9f1 ddbc
00000200: ff6b a03d ccce ff3d c4ff 90bd 3429 7b3d
00000210: 5ba6 93bd d8c0 06bd 1cd8 6bbd 82ff 103d
00000220: 8037 a23d 6a33 a8bc 64a8 e33d d851 03be
00000230: af84 e9bd 88ec 76bd 51a2 d9bd 83c4 e3bc
00000240: e764 ebbc b805 6d3c 7849 433c d419 23bd
00000250: 4bfe 11bc bf9a a93d 35f9 19bd 45e6 bcbd
00000260: 703b d6bb e288 ce3c 3a6f 32bd 9525 4ebc
00000270: bec7 b23d f6ee f5bd efa5 eebd 4d6c 85bd
00000280: e406 013e b01a ccbd 7319 c83d a6b7 c5bd
00000290: e5a6 893c 926c 673d 946e 45bd 3c70 9abd
000002a0: 3df2 a2bc 3e40 1f3d c1c9 80bd 929d 7e3d
000002b0: 591c e9bd 5043 a73d 7692 43bb b5a5 0f3c
000002c0: ef0d e2bd 969d bfbd 17b0 ebbd 18a0 82bd
000002d0: 8017 6fbc 1b81 6d3d 987d 413d 20aa 123d
000002e0: d0ee 91bd 579b a63d 3864 833d c0ab 95b8
000002f0: 610f 083d 0c72 a53d 5c4e 043e c5d4 2c3d
00000300: 387c 9a3d 8549 fdbd 6ef7 1fbc 7c1c f8bc
00000310: 0e87 833d e238 823d a5c9 acbd 197c c33d
00000320: f905 6b3d 6b9e 50bb 6a15 213d 8ef8 d23d
00000330: 76b1 91bd 6bd3 8fbd 339f 0abe b87e f1bc
00000340: 1670 103d c26e be3d 6d71 633d ecd5 1cbd
00000350: b96f dc3d 1541 983d 7e81 d83d 670e 823d
00000360: d18e 1b3d 0471 e23d cbd7 6a3d e8e1 25bd
00000370: 2fe4 b6bd 9064 84bd 7a95 5a3c 8ce8 9fbd
00000380: 6763 edbd 17fc d1bd 8e02 443d 4765 d53d
00000390: 3a65 9cbd 3952 bd3d 80fe b23c 7d2a 3c3d
000003a0: 7306 88bc 292d ccbd 05ad 8d3d 534d ffbc
000003b0: ee8c dc3d e1a5 5dbd b3bd d53d 6249 f23d
000003c0: f450 983c 432b 903d d8ca 8bbd c403 a8bd
000003d0: 188c 6b3c 592a 3f3d 1bd6 463c 01ad ffba
000003e0: 748d 84bb df55 6c3d 52ce c4bc 4d61 843d
000003f0: 9408 bdbd 5106 04bd 7fa5 24bd adcf 59bd
